==========================================================================================
Layer (type:depth-idx)                   Output Shape              Param #
==========================================================================================
FashionMnistCnn                          [1, 10]                   --
├─Sequential: 1-1                        [1, 64, 7, 7]             --
│    └─Conv2d: 2-1                       [1, 32, 28, 28]           320
│    └─ReLU: 2-2                         [1, 32, 28, 28]           --
│    └─MaxPool2d: 2-3                    [1, 32, 14, 14]           --
│    └─Conv2d: 2-4                       [1, 64, 14, 14]           18,496
│    └─ReLU: 2-5                         [1, 64, 14, 14]           --
│    └─MaxPool2d: 2-6                    [1, 64, 7, 7]             --
├─Sequential: 1-2                        [1, 10]                   --
│    └─Flatten: 2-7                      [1, 3136]                 --
│    └─Linear: 2-8                       [1, 128]                  401,536
│    └─ReLU: 2-9                         [1, 128]                  --
│    └─Linear: 2-10                      [1, 10]                   1,290
==========================================================================================
Total params: 421,642
Trainable params: 421,642
Non-trainable params: 0
Total mult-adds (Units.MEGABYTES): 4.28
==========================================================================================
Input size (MB): 0.00
Forward/backward pass size (MB): 0.30
Params size (MB): 1.69
Estimated Total Size (MB): 1.99
…
